…
 one-dark-pro","style":{"display":"grid"},"children":["$","span","span-0",{"data-line":"","children":[["$","span","span-0",{"style":{"--shiki-light":"#24292E","--shiki-dark":"#ABB2BF"},"children":"model."}],["$","span","span-1",{"style":{"--shiki-light":"#24292E","--shiki-dark":"#61AFEF"},"children":"summary"}],["$","span","span-2",{"style":{"--shiki-light":"#24292E","--shiki-dark":"#ABB2BF"},"children":"()"}]]}]}]}],false]}]
a7:Ta51,
 input_1 (InputLayer)        [(None, 64, 64, 3)]       0         
                                                                 
 conv2d (Conv2D)             (None, 64, 64, 32)        896       
                                                                 
 max_pooling2d (MaxPooling2D  (None, 32, 32, 32)       0         
 )                                                               
                                                                 
 batch_normalization (BatchN  (None, 32, 32, 32)       128       
 ormalization)                                                   
                                                                 
 dropout (Dropout)           (None, 32, 32, 32)        0         
                                                                 
 conv2d_1 (Conv2D)           (None, 32, 32, 32)        9248      
                                                                 
 max_pooling2d_1 (MaxPooling  (None, 16, 16, 32)       0         
 2D)                                                             
                                                                 
 batch_normalization_1 (Batc  (None, 16, 16, 32)       128       
 hNormalization)                                                 
                                                                 
 dropout_1 (Dropout)         (None, 16, 16, 32)        0         
                                                                 
 flatten (Flatten)           (None, 8192)              0         
                                                                 
 dense (Dense)               (None, 512)               4194816   
                                                                 
 batch_normalization_2 (Batc  (None, 512)              2048      
 hNormalization)                                                 
                                                                 
 dropout_2 (Dropout)         (None, 512)               0         
                                                                 
 dense_1 (Dense)             (None, 256)               131328    
                                                                 
 batch_normalization_3 (Batc  (None, 256)              1024      
 hNormalization)                                                 
                                                                 
 dropout_3 (Dropout)         (None, 256)               0         
                                                                 
 dense_2 (Dense)             (None, 2)                 514       
                                                                 
6c:["$","$L85","pre-0",{"children":["$","code","code-0",{"children":["Model: \"model\"\n_________________________________________________________________\n Layer (type)                Output Shape              Param #   \n===============================================================",["$","mark","mark-0",{"children":"$a7"}],"===============================================================\nTotal params: 4,340,130\nTrainable params: 4,338,466\nNon-trainable params: 1,664\n_________________________________________________________________\n"]}]}]
…
